MainApp/app/src/main/ml/cifar10_model (1).tflite (tflite, 462272 bytes, 16 tensors)

arith.constant f4 [32]
000000 7a eb 8d bd 5b 4e 37 3e 80 bc 17 be 99 96 d0 3d
       -0.06929679 0.17900984 -0.14818001 0.10184974
000010 b9 b6 19 3e f2 4b 9c 3c 3b 03 a3 bc ba 2b 27 3e
       0.1501111 0.019079182 -0.019899001 0.16325274
000020 dc 99 51 3d 2c 6a ab 3d e5 54 d4 bd d7 82 52 bd
       0.051172122 0.0836986 -0.10367755 -0.05139431
000030 b9 91 1a 3c 99 25 b8 3e 7d 7a d1 3d f1 02 a9 bd
       0.009434157 0.35966185 0.10228441 -0.08252514
000040 76 b2 e1 3d ca 15 e0 bd 1c 87 31 3e d7 6d 89 3d
       0.11020367 -0.10941656 0.17336696 0.067104034
000050 7f fd c9 3d 9f 69 f1 3c 0b 1b b1 3d 0b ed 79 bd
       0.09862804 0.02946931 0.08647736 -0.061017077
000060 b8 65 82 3d ff fe fc 3d 5c 60 00 bf c3 9c 26 3e
       0.063670576 0.12353324 -0.5014703 0.16270737
000070 06 36 19 bd df 03 1a 3e b4 72 6f be 6b ef 23 3e
       -0.037405036 0.15040539 -0.233836 0.160093

arith.constant1 f4 [64]
000000 d7 c1 5e 3d 1e 81 7c 3d 80 b4 bc bd 3b 9b ea bd
       0.05438408 0.061646573 -0.09214115 -0.11455389
000010 9f a7 5e 3d 32 a6 0c bc ac b9 a7 be 26 b1 93 bd
       0.054359075 -0.008584546 -0.32758844 -0.07211523
000020 5c 02 22 be 47 db 8b 3d f4 2e a4 bd 66 8d ac 3d
       -0.15821213 0.06828933 -0.08016768 0.08425407
000030 ca d1 b4 bc 99 c1 96 bd 60 d6 4b be 86 10 05 be
       -0.022072691 -0.073611446 -0.19905996 -0.12994584
000040 0f e8 a6 3c 84 58 32 be 0d 60 6a 3d 8b 91 40 be
       0.020374326 -0.17416579 0.057220507 -0.1880552
000050 50 86 c5 bd e5 48 e1 bd 3e 03 e7 bd c9 56 ef bd
       -0.09644759 -0.11000232 -0.11279915 -0.11686475
000060 d4 19 55 be 89 9b 86 be 6b ea fa bd 52 79 1e 3d
       -0.20810634 -0.2629054 -0.12251743 0.03868992
000070 d2 0b 89 be 98 46 21 3d 6c 7d c5 bd 75 91 02 3e
       -0.2676683 0.039373964 -0.09643063 0.127508
000080 27 bb 31 bd 2e 57 e7 3c 3a ac 92 bd c3 99 50 be
       -0.043391373 0.028239813 -0.07161756 -0.20371155
000090 d8 1c 3a bd e3 f3 5a be aa fc ae bd 65 53 af bd
       -0.045437664 -0.21382098 -0.085442856 -0.08560828
0000a0 cd b1 b8 3d 2a a7 a3 3c b6 bf 04 be 2f c2 eb bd
       0.09018288 0.019977171 -0.12963757 -0.11511647
0000b0 81 da bc bd 3e 88 b9 3d 9b 38 25 bd c2 d3 f7 3c
       -0.09221364 0.09059189 -0.040337186 0.030252341
0000c0 4f cd 82 bd b6 2a 34 bd 83 70 7f 3b 49 c7 f6 3d
       -0.06386816 -0.043986045 0.0038976974 0.120497294
0000d0 46 6e 6c be 1f f1 74 3d 3b d0 1c 3e 9e 18 1b be
       -0.23088941 0.059800263 0.15313809 -0.1514611
0000e0 67 bd 0e bd 52 ec 94 3c be 6c 59 3d 9f 57 4b be
       -0.034848597 0.018179093 0.05308222 -0.19857644
0000f0 f8 1e 84 bc c5 a5 89 3d 4f 94 b7 bd 8b dd b0 bd
       -0.016128048 0.06721071 -0.089638345 -0.08636006

arith.constant2 f4 [32, 3, 3, 64]
000000 ab 38 48 3b 18 71 f0 bd 62 80 8d 3c f6 37 b6 3d
       0.0030551355 -0.11740321 0.017273132 0.088973925
000010 32 d0 4a 3e 12 dc 3e be 1c 45 1c be 25 0f 33 be
       0.19805983 -0.18638638 -0.15260738 -0.17486246
000020 92 d2 09 3e 53 d4 bb bd 6b 09 b7 be 7f 57 43 be
       0.13459232 -0.09171357 -0.35749373 -0.19076346
000030 36 1e 97 3d 93 72 3c be 8c 2e 55 be 12 68 6e 3a
       0.07378809 -0.18403082 -0.20818537 0.0009094487
000040 b6 ed 07 3e a2 f1 0a be 9f 48 ca 3d aa 83 65 bd
       0.13274273 -0.13568738 0.098771326 -0.056033768
000050 0f 65 91 3d 03 46 ac 3d 82 22 69 bd d7 f5 b7 be
       0.070993535 0.08411791 -0.056917675 -0.35929748
000060 92 72 ab 3d 12 d2 f3 bd 0c 6d f3 bc f6 e0 85 3d
       0.08371462 -0.11905302 -0.029715084 0.065370485
000070 0a 8a 47 bd 5b d4 7b bd c5 04 31 be 06 29 d3 bc
       -0.04871563 -0.061481815 -0.17286976 -0.025776397
000080 b2 ba 75 bd 0e 04 06 3e 35 00 7d bd ee cf 8c be
       -0.0599925 0.13087484 -0.061767776 -0.27502388
000090 3c 38 42 3b 1b 9d 57 bd 93 71 58 3e 8b e3 79 3c
       0.002963557 -0.05264006 0.21137075 0.015252004
0000a0 02 17 91 be f8 80 80 bd c5 46 b3 bd c9 ac 2a 3e
       -0.28337866 -0.06274599 -0.087537326 0.16667475
0000b0 20 b9 87 3e 99 e4 39 3d d0 c4 ba 3d 21 52 93 be
       0.26508427 0.045384023 0.0911957 -0.28773597
0000c0 1e d5 1a bd 7e db 1a 3e 53 88 2b be 52 fd 3d 3e
       -0.0378009 0.15122792 -0.16751222 0.18553665
0000d0 9b ca 31 3d 8f e2 8a bc 54 41 03 3e 03 2f bf bd
       0.04340611 -0.016953735 0.1281789 -0.09335139
0000e0 a8 18 10 bd 8e d5 32 bc a0 f2 84 3c db 7c 03 be
       -0.035179764 -0.010915173 0.016228974 -0.12840597
0000f0 47 53 f5 bd 0f 8f 75 3e c1 12 60 be fc 2e 62 be
       -0.119787745 0.23980354 -0.21882154 -0.22088236
000100 c4 f9 a8 3d 03 94 3e be 03 e4 51 3d 94 35 95 3d
       0.08250764 -0.1861115 0.05124284 0.0728561
000110 d8 47 3c 3e 67 ab d2 bd 36 1f ec ba 53 c2 03 3e
       0.18386781 -0.10286599 -0.0018014673 0.12867098
000120 94 22 f6 bb 7b bf 9b bd b4 b0 64 be 57 63 b6 bd
       -0.0075114463 -0.076048814 -0.22333032 -0.08905666
000130 c3 f7 26 be e8 48 59 bd 4f 11 c2 bd 12 3e 8d bb
       -0.16305451 -0.053048044 -0.094759576 -0.004310378
000140 1e 58 99 3d 17 3a 2b 3e 31 c7 0d 3d 0f b5 17 3d
       0.0748751 0.16721378 0.03461379 0.037037905
000150 db 50 e3 3c 71 18 5c 3e 80 c2 8e 3d 3b 3e 4e be
       0.027748516 0.21493699 0.06970692 -0.20140927
000160 9a cb f9 bc 56 75 c1 bd 65 ef 12 3e 2c 31 21 bd
       -0.030492593 -0.09446208 0.14349134 -0.039353535
000170 88 ee df 3c 5e e3 38 bd 14 49 82 bc 27 ad 9f bd
       0.02733542 -0.04513871 -0.015903987 -0.07796698
000180 0e 66 8e 3d a3 cc 68 3e ea 8b 0d 3e cc 40 10 be
       0.06953059 0.22734313 0.13822904 -0.14087218
000190 34 d3 a9 bd 61 ff 4b 3e 82 e1 5b 3e b4 1e 01 3d
       -0.08292237 0.19921638 0.21472743 0.03152342
0001a0 be fb f4 bd ca 21 49 bc 99 c5 fc bc 6c 29 d1 3d
       -0.119620785 -0.012276122 -0.03085594 0.10212979
0001b0 b9 97 55 3e 7d ba a8 3d 60 20 26 bd d6 e7 45 be
       0.20858659 0.08238695 -0.04055822 -0.1932672
0001c0 92 ab 45 3e 45 84 4e bd 23 4d 52 be 6f d9 4b bc
       0.1930373 -0.05041911 -0.20537238 -0.012441977
0001d0 99 e0 7a be b6 d7 44 be ae 7d 67 3e 9f 91 53 bd
       -0.2449974 -0.19222912 0.22606537 -0.051652547
0001e0 cc 50 a8 3d 72 6f b3 3c 8e 99 01 3d bf 66 05 bd
       0.08218536 0.021903727 0.03164058 -0.03256869
0001f0 b7 70 41 3c 37 07 15 3e 32 1b 3c be f2 9d 00 be
       0.0118066585 0.14553533 -0.18369749 -0.12560251
000200 dd 6f 63 3d ae a6 57 bd 61 ae 9d 3d cc 15 3e 3d
       0.055526603 -0.052649193 0.07699276 0.046407506
000210 0a f6 b9 3d f0 5d 5b 3d 87 d2 37 be 17 4a 00 3d
       0.09080131 0.053556383 -0.17951404 0.031320658
000220 e0 a7 a2 bc 1b d4 0e be 43 9b 1c be 8a 46 f1 3c
       -0.01985544 -0.139481 -0.15293603 0.029452581
000230 40 f5 74 be 44 44 cf 3d 35 16 9f bd cd dd 64 3d
       -0.2392168 0.101204425 -0.077679075 0.05587559
000240 b9 b7 d3 bc fa 7e 15 3e 8d 5c 95 3d 74 99 f4 bc
       -0.025844442 0.14599219 0.07293043 -0.029858328
000250 c5 a1 7f 3e 10 36 80 3e 7c 3f ab bd b3 a2 d3 bd
       0.24964054 0.25041246 -0.08361718 -0.10333767
000260 27 bf 35 bc 23 a4 a7 bd e4 79 b3 3d 53 77 b7 bd
       -0.011092938 -0.081856035 0.08763483 -0.08958306
000270 a9 dd 29 3e 04 8a 0f 3d 05 5d 1a bd 07 c4 6b bd
       0.16588463 0.03504373 -0.037686367 -0.057559993
000280 60 ed 2d 3e 72 c4 88 3d 9f a4 8d bc c1 2b 41 be
       0.16985083 0.06678094 -0.017290412 -0.18864347
000290 d5 ca df bd 42 87 2e 3e b8 44 cf bd 6b 0f 7f 3c
       -0.10927359 0.17043784 -0.10120529 0.015567641
0002a0 fa 13 a9 3d 46 b2 11 3d 76 04 92 3d 1b 0f 08 bc
       0.08255763 0.035570405 0.07129757 -0.008304383
0002b0 b2 7d cc 3d ef b2 c1 3d c4 a2 8d 3e 6e 8f 7c bc
       0.09984912 0.09457957 0.27663243 -0.015415056
0002c0 c8 3b 8b bd 47 68 52 bd 3c 48 6b 3c 1b f4 f4 bd
       -0.06798512 -0.051368978 0.014360484 -0.11960622
0002d0 d3 93 39 bc 59 8d e3 3d 45 19 37 3e d1 57 61 be
       -0.011326748 0.11110944 0.17880733 -0.22006156
0002e0 2c aa 49 3b 73 5c 86 3d dc 23 3f be 99 09 e8 bc
       0.0030771596 0.06560602 -0.18666023 -0.028324889
0002f0 69 a5 70 bd 0c b7 3d 3d 28 ac 4c be ca 4b c6 bc
       -0.058751497 0.046317145 -0.19987547 -0.02420606
000300 65 0a 2d be 11 aa e9 bd d1 8e c2 3d b0 ef 69 bc
       -0.16898496 -0.11409391 0.09499896 -0.014278337
000310 a8 3b 94 bd 31 90 b5 3c 32 63 8b 3d 87 60 5a be
       -0.07237941 0.022163482 0.068060294 -0.21325885
000320 bb d0 68 be a6 33 23 3e ed 41 bb be 0d 51 72 be
       -0.22735874 0.15937671 -0.36573735 -0.23663731
000330 44 e8 f9 bd d0 cb 25 be 1f 03 b8 3c 1f 03 cc bd
       -0.12202504 -0.1619103 0.022462426 -0.09961533
000340 98 62 d2 bd 96 41 8c 3d f5 06 8e 3d 9e 9e 04 3e
       -0.102727115 0.06848447 0.06934921 0.12951133
000350 7b 89 58 3e 84 c1 1b be f2 c1 d9 bb 92 39 bd bd
       0.21146195 -0.15210539 -0.0066454345 -0.09239496
000360 34 9e 4a 3e 35 cf f2 3c 95 28 05 be 70 32 44 bd
       0.19786912 0.02963982 -0.13003762 -0.047899663
000370 70 e3 29 bd 86 0c b4 bc b2 b9 79 3d d0 0c 0e bd
       -0.041476667 -0.021978628 0.06096811 -0.034680188
000380 2d c9 b5 3d fa a6 7b 3c 32 ec 93 bc b9 50 1a 3d
       0.08876262 0.0153596345 -0.018056963 0.03767464
000390 f3 bc a5 bc a5 38 3d 3d 2a 8d c0 bc 9d b3 a6 bd
       -0.0202317 0.0461966 -0.023504812 -0.08139727
0003a0 77 c6 7d be 54 d3 b4 3d f6 07 b0 bd bb c7 43 3e
       -0.2478274 0.0882937 -0.085952684 0.1911916
0003b0 a7 5b 70 be 0f e2 0c be 40 16 19 3d b8 ce 15 3d
       -0.23472463 -0.1375811 0.037374735 0.036574095
0003c0 0e da 56 3c 45 3b 5f 3d b6 5d b1 be b0 28 a6 ba
       0.013113512 0.054499883 -0.34641808 -0.0012676921
0003d0 2d b7 2e be a4 a9 d2 bd ac 34 22 3d 59 af 24 be
       -0.17062064 -0.10286263 0.039601013 -0.16082515
0003e0 71 49 a7 bd d1 a4 a6 bd 1b 4a 98 3d f0 c1 9f 3c
       -0.08168305 -0.08136905 0.074360095 0.019501656
0003f0 37 2b 45 3c 78 28 46 3e c9 1c 50 be 44 06 5f 3d
       0.012034229 0.19351375 -0.2032348 0.054449335

arith.constant3 f4 [64, 3, 3, 128]
000000 c8 d8 de 3d 1f e2 62 3d c6 ed 45 bc 7c 34 67 3d
       0.108811915 0.055391427 -0.012080615 0.056446537
000010 b2 53 92 3c c6 9e 95 bd 27 bb 9f 3d 89 af e3 bb
       0.017862175 -0.07305674 0.07799368 -0.0069484157
000020 2a 95 c4 3c 29 be 6f 3d 26 6e 1f 3c ff f0 0d 3e
       0.023996908 0.05853096 0.009730851 0.13861464
000030 c8 58 6a 3d 05 82 6d be ae 62 63 3e e1 42 de 3c
       0.057213575 -0.2319413 0.22205612 0.0271315
000040 bd 4f 0f 3d 9d bb c3 3b 4b 86 1d 3d 68 eb 9d bc
       0.034988154 0.005973293 0.03845815 -0.01927729
000050 63 6a aa 3c 2f f1 bb 3d 0a fb 18 3e 78 a6 62 3b
       0.020802682 0.091768615 0.14939514 0.0034584086
000060 7c 95 1d 3c aa 09 3c 3b 52 e0 a8 3c 8f e0 28 3e
       0.009618159 0.0028692284 0.020614777 0.16491912
000070 37 11 1e 3c 59 b3 5a bd fd 30 0c be 0c b6 28 3d
       0.009647659 -0.053393696 -0.13690563 0.04118924
000080 f0 5c 5a 3d 1e 7a 30 3d f3 e2 b2 3d 3d 65 fa 3c
       0.05331129 0.04308521 0.087346934 0.030565852
000090 ab 36 31 3e bb df 6e 3e 20 11 26 bd 96 56 3e 3c
       0.1730601 0.23327534 -0.040543675 0.011617323
0000a0 52 f4 c4 3b 17 8a d1 3d 38 3c 27 3c 6e b5 4c 3c
       0.0060105706 0.10231417 0.010207228 0.012494428
0000b0 50 b9 6e 3d e0 a6 98 bc fd 28 1f bb 91 ec 80 bd
       0.058282197 -0.01863426 -0.0024285906 -0.062951215
0000c0 57 2a bb bc f5 ab 7a bb 26 07 23 bc fb 36 12 3e
       -0.022847338 -0.0038249467 -0.009950435 0.14278786
0000d0 25 25 14 bd ed a8 76 3c 00 e1 3d bc b1 e0 12 3d
       -0.036168236 0.0150549235 -0.011589289 0.035858814
0000e0 b1 d3 01 3d 30 ce 0e 3e 7f 22 f1 bd e4 8d 43 bd
       0.031696025 0.13945842 -0.11774158 -0.04774274
0000f0 52 d4 0a be aa 7e ee 3d 30 70 30 bd 02 72 df 3c
       -0.13557556 0.11645253 -0.04307574 0.027276043
000100 df 8f 27 3e 0d 42 c4 bd 29 cb 4e bd 96 74 aa 3d
       0.16363476 -0.09582911 -0.050486717 0.08323018
000110 a1 18 b9 3c ce 2f b0 3c 5b 8f cc bd 60 48 cc bd
       0.022594752 0.02150717 -0.099882804 -0.09974742
000120 11 66 dd bc 75 af ce 3b e2 9d 0d 3d 01 3d 22 bd
       -0.027026208 0.006307537 0.034574397 -0.03960896
000130 8e 23 88 3d 56 ea 3c bd 92 84 8c 3b db 08 56 3d
       0.066474065 -0.046121918 0.0042882646 0.05225454
000140 87 02 09 bc 9b 70 4c 3d 8e 8a 21 bd 7f 3a 83 3c
       -0.008362419 0.049912076 -0.039438777 0.016019104
000150 cf 54 9e bc 0f 56 b6 bd c2 f0 10 be 10 d3 f1 bc
       -0.01932755 -0.08903133 -0.14154342 -0.029519588
000160 64 18 9a bd 60 4f f2 3b 97 31 42 bd 28 da d5 bd
       -0.075241834 0.007394716 -0.047410574 -0.10442001
000170 77 ac d4 3c 3c 2e e6 3c 91 70 99 bc 20 dc e5 bd
       0.025961144 0.028098218 -0.018730434 -0.11223626
000180 bb f8 72 bd 41 48 fd 3c b8 f9 13 3d 6a 2f ed 3b
       -0.05931924 0.030918242 0.036126822 0.007238318
000190 65 a6 15 3e aa ea 6f 3d f6 0e a2 bb a2 a9 cc 3d
       0.14614256 0.058573402 -0.004945631 0.099932924
0001a0 b4 8d 83 3d f0 ed 3f bd da 87 81 3b 61 d2 af 3c
       0.06423512 -0.046857774 0.0039529623 0.021462621
0001b0 f2 64 0e 3e 87 6e fa 3d 2e de a1 3c 5d da ef 3b
       0.13905695 0.12228113 0.019759264 0.007319732
0001c0 4a 94 d9 3d bf 54 dc bc 90 d9 d3 3d 14 fb 03 3d
       0.10623987 -0.026895879 0.10344231 0.03222187
0001d0 d2 7c 97 3c 6a af 67 bb 6d 14 98 bb f3 fb a0 bc
       0.018492136 -0.0035352358 -0.004641107 -0.019651389
0001e0 eb d8 0c 3d 01 a0 8d 3d 20 95 82 bd 20 6d f9 bc
       0.034386557 0.06915284 -0.063760996 -0.030447543
0001f0 76 7d e1 bc 10 40 f9 bc 83 a3 5a 3d ad 48 71 3d
       -0.027525645 -0.030426055 0.053378593 0.0589072
000200 70 b0 20 bd 4a be ac 3c 12 7e 5e 3e 64 b4 db bd
       -0.039230764 0.02108683 0.2172778 -0.10727766
000210 ac 25 3f bc 22 64 95 bd 5e 2c 55 bd 5d 8f 0a bd
       -0.0116666965 -0.072944894 -0.052044265 -0.033828128
000220 e4 41 0b bd d2 50 39 be cc 74 4f 3e f4 9f de 3d
       -0.033998385 -0.18097237 0.20259398 0.108703524
000230 49 79 86 bc d0 e8 57 3c de 71 a9 bd cc c9 aa bc
       -0.016415255 0.013178065 -0.082736716 -0.020848177
000240 bb 8f 63 3c 36 d3 37 bd c1 c3 2e 3d 94 13 cd bb
       0.0138892485 -0.04487916 0.042667154 -0.0062584374
000250 a7 37 c2 3c 93 99 18 be f2 27 d0 3d c9 d1 9e 3d
       0.023708178 -0.14902334 0.10163869 0.07754857
000260 01 6d cc bc 01 67 ee bc 97 c3 cd 3c 33 ca ea bd
       -0.02495432 -0.02910185 0.025117679 -0.11464348
000270 c1 cc 39 bd 44 1b aa bd a5 66 b1 bd 00 91 b8 bc
       -0.045361284 -0.08305982 -0.08662156 -0.022530079
000280 27 88 6a 3d ba 9c d8 bc a8 ca 9a bd 8e c7 30 3b
       0.05725875 -0.02644192 -0.07558185 0.0026974413
000290 41 a2 00 be a6 f7 07 be 89 6c 4f 3c 65 b0 97 3d
       -0.12561895 -0.13278064 0.012660154 0.074066915
0002a0 b2 82 8c bd 9e 6b 83 bb 16 79 b5 bc a9 e7 86 bd
       -0.06860866 -0.0040106317 -0.022152465 -0.065871544
0002b0 77 2c 1a 3e c2 b8 69 bc 63 3b d7 bd 85 db c7 3d
       0.15056024 -0.014265241 -0.10509374 0.09758667
0002c0 a7 2c ab bd 29 03 a1 3c 49 dd cb bd f9 97 9b 3d
       -0.08358126 0.019654827 -0.09954316 0.07597346
0002d0 74 dd 22 3d 14 09 35 3e ba 80 5f 3d 02 34 95 3d
       0.039761975 0.17679244 0.054566123 0.0728531
0002e0 b6 25 4f bc 63 f9 0a 3e 98 bf 42 be 03 14 29 3e
       -0.012643268 0.13571696 -0.190184 0.1651154
0002f0 1d 93 8e 3e 33 c7 96 3d 69 ac 04 3d b8 fb 39 3e
       0.27846614 0.07362213 0.032390986 0.1816243
000300 e5 63 87 bd d5 e1 a2 3e d8 56 b2 bd 7f cd 26 3e
       -0.0661085 0.3181292 -0.087079704 0.16289328
000310 fb be 9f 3d eb 88 91 3c 85 94 9b bc cf 4f fd bc
       0.078000985 0.017765483 -0.018991718 -0.030921845
000320 7c 45 cf bc c7 77 7b bd 6c 28 c1 3d 92 56 b7 ba
       -0.025301687 -0.061393525 0.09431538 -0.0013987592
000330 b0 40 92 3d 27 08 67 bd 8a a3 1b be 99 97 a1 3d
       0.071412444 -0.05640426 -0.15199104 0.07890243
000340 b1 b1 74 bc d5 04 9e 3d 5d 62 52 3e 00 59 fa 3d
       -0.014934943 0.077157654 0.20545335 0.12224007
000350 cd f7 bf bd 20 b9 66 3e f7 9e 8b bd 07 76 51 bd
       -0.09373436 0.22531557 -0.068174295 -0.05113795
000360 54 53 33 3e 3a 90 3b bd 2f 9f 47 3c 8c 7a b0 bd
       0.17512256 -0.045791842 0.012183948 -0.08617124
000370 b2 17 2a 3e 49 ae 12 be 5b 4f 2f bd 5b 3c e5 bd
       0.16610602 -0.14324297 -0.04280029 -0.111931525
000380 4a 8a 06 bd 4d 55 88 3c e6 ed 47 bc 80 ba 9a 3c
       -0.032846726 0.016642237 -0.0122027155 0.018887758
000390 99 77 3e 3e 73 d4 6f 3d d6 a7 ee bc 36 47 14 3e
       0.1860031 0.058552217 -0.029132765 0.1448029
0003a0 40 f5 bf bd e2 cc 74 3e be 4e 2d bc ff 29 30 3d
       -0.093729496 0.23906282 -0.010577856 0.0430088
0003b0 01 a5 01 3c f9 35 cf 3c fc 7d e9 3d 1f ed 48 bd
       0.007912875 0.02529429 0.11400983 -0.04905426
0003c0 df bd 25 3e a9 72 9a bd f2 68 aa bd c1 2b bd bd
       0.16185711 -0.07541401 -0.08320798 -0.09236861
0003d0 ef e6 0b bd db 35 81 3d fe c4 03 bd 5a db 8c bd
       -0.034155782 0.063091 -0.03217029 -0.068777755
0003e0 52 b7 6e 3c db 7d f4 3b 31 af 09 3d 0a 28 fa 3c
       0.014570074 0.007461292 0.03361434 0.03053667
0003f0 aa 5f 61 3e 6a 2a a7 bc 26 66 9b 3d d1 d1 3e 3d
       0.22009149 -0.020405967 0.07587843 0.046586815

arith.constant4 f4 [10, 128]
000000 72 aa 73 3d 0b 75 c8 3d 1c 5e ee 3d 74 e7 98 3d
       0.05948872 0.09787949 0.11639044 0.07466021
000010 09 c9 20 bd 75 3d 99 ba 7e 18 c8 3d f4 ac b1 3c
       -0.039254222 -0.0011691289 0.097702965 0.021688916
000020 4e 74 0c be be 9d 3c be 90 41 8a bd 87 7c 31 3d
       -0.13716242 -0.18419549 -0.06750786 0.04333165
000030 d9 73 26 be 98 9f 7c be b0 24 4a bd 91 38 44 be
       -0.1625513 -0.24670255 -0.049351394 -0.19162203
000040 16 66 ab 3d d0 39 09 3d 3a f0 07 be b4 eb c8 3d
       0.08369081 0.0335024 -0.13275233 0.09810582
000050 68 ae 92 3d 19 17 5e bd 8b 35 7d 3d df cd 0e 3e
       0.071621716 -0.054221246 0.06181864 0.13945721
000060 05 6b 15 be bf aa c3 3d 1a 9f 44 be 5e b2 1c bd
       -0.14591606 0.095540516 -0.19201317 -0.03825604
000070 5e 9a a1 be b5 ca 72 be 74 28 0d be 00 b6 f4 3d
       -0.31563085 -0.23710139 -0.13784963 0.11948776
000080 d1 95 66 3d e3 8c 84 be 79 6d d9 bd 38 8b 10 be
       0.05629522 -0.25888738 -0.106165834 -0.14115608
000090 5b 55 61 bc b3 f0 40 3d 06 ff bd bd 59 95 c0 bc
       -0.0137532605 0.04710455 -0.092771575 -0.023508715
0000a0 af 4a af 3d a5 5a 59 3d 2f 7c 0f bc b7 89 2a bc
       0.08559167 0.05306496 -0.008757635 -0.01040881
0000b0 43 7a 0b 3e 98 15 09 3d 3d 41 d1 be e4 07 30 3d
       0.13620858 0.03346786 -0.40870085 0.042976275
0000c0 79 a1 c6 bd 08 95 e2 3d 73 b9 33 be 77 0a 9b be
       -0.09698767 0.11063582 -0.17551212 -0.30281422
0000d0 fc 5b 3e 3d d9 7a f5 3c 19 95 28 3e ee f1 96 bd
       0.046474442 0.029965805 0.16463126 -0.07370363
0000e0 24 7a b9 3d 55 7a 77 be 2d d6 8d 3c 2b 8c e5 3d
       0.090564996 -0.2416776 0.017314041 0.112083755
0000f0 41 b4 0b 3e 53 28 9d 3d ba a7 15 be b6 17 d9 bd
       0.1364298 0.07673707 -0.14614764 -0.106002256
000100 bf 7a da 3d 82 76 05 3e ba cb 3a be b0 64 cf 3d
       0.10667943 0.13033488 -0.18241778 0.101266265
000110 34 e4 57 bc ac 94 8e be 77 76 ba 3d 8b 7b 2c 3e
       -0.013176966 -0.27847803 0.091046266 0.16844003
000120 2a 0d f0 3d b3 d3 32 3d c6 51 09 be ec 3b f1 3d
       0.11721261 0.043658923 -0.134101 0.11779007
000130 f9 c1 f7 3d 12 bd 12 be 85 79 9f bb 68 b5 89 bd
       0.12097544 -0.14329937 -0.004866781 -0.067240536
000140 c4 36 d8 3c 32 2e a1 bc 71 07 05 be da d7 bb bc
       0.026393302 -0.019675348 -0.1299112 -0.022930074
000150 20 7c 30 3e ce 17 7f be 5c 43 9c 3d 66 e8 bf bd
       0.1723485 -0.24911425 0.07630035 -0.09370498
000160 ae 18 d5 3b 0d 62 ae bd 26 3c 60 3c d5 81 1e be
       0.006503186 -0.085147955 0.0136862155 -0.15479214
000170 8c 30 1c be 89 39 85 bd f7 c3 14 3e 78 f7 6e 3b
       -0.15252894 -0.065051146 0.1452788 0.003646342
000180 38 23 b2 3d f9 d6 f2 ba 26 6b 7a bd fc 5c 3e bd
       0.08698124 -0.0018527202 -0.06113734 -0.046475396
000190 c0 18 89 3d eb 70 af 3d 26 2e 05 3e ad cb 80 bd
       0.06694174 0.08566459 0.13005885 -0.06288848
0001a0 ac b3 4a be c6 f3 f7 bd 5d e8 15 bc ab b6 1f be
       -0.19795102 -0.12107043 -0.009149638 -0.15597026
0001b0 96 c3 fa 3d ff c9 0c be d9 1f a4 3d 27 fe a6 bd
       0.12244336 -0.1374893 0.08013887 -0.081539445
0001c0 cf 3b a4 bd ad f4 f6 3d 75 a7 ba 3d 52 4e 02 bc
       -0.0801922 0.12058387 0.09113971 -0.007953243
0001d0 1b fe 17 be dc 52 dc 3d 2c 3b 8e be 51 df 74 3b
       -0.14843027 0.10757992 -0.2777952 0.0037364552
0001e0 e5 09 75 bd c0 40 f9 3d 63 2f 13 3e 8c 9a f1 3c
       -0.05982389 0.12170553 0.14373545 0.029492639
0001f0 75 ef 76 bd ef 0a f2 bc 33 ff 8a be 82 c4 c8 3d
       -0.060286958 -0.02954623 -0.27147827 0.09803106
000200 40 c3 2a be 46 d6 12 be d8 30 66 bd 58 40 67 3e
       -0.16676044 -0.14339551 -0.056198925 0.22583139
000210 68 d0 95 3d af 5f 01 bd c5 7e 19 be 01 cd 99 3d
       0.07315141 -0.03158539 -0.14989765 0.075098045
000220 98 63 38 bd 4e 89 b2 be 0d 92 93 3c 44 c9 67 be
       -0.045016855 -0.3487038 0.018013978 -0.2263537
000230 23 26 91 be 62 63 6a bd 48 21 2b be ac 0f 43 bd
       -0.28349409 -0.057223685 -0.16711915 -0.047622368
000240 73 6c 1c be 0d cb 04 be 1b 3b 18 be 3e ca 4b be
       -0.15275745 -0.12968083 -0.14866297 -0.19901368
000250 53 e9 86 be 94 82 0f be 81 f7 d0 bd cb 0f 10 3e
       -0.26349887 -0.14014655 -0.102034576 0.14068525
000260 c2 12 c8 3d 63 2b 5a be 77 4c 34 bd ac 73 53 bd
       0.09769203 -0.21305613 -0.044018235 -0.051623985
000270 39 09 20 be e7 d4 c1 bd f7 8f 0b be 48 2c 01 3d
       -0.15628518 -0.09464436 -0.13629137 0.03153637
000280 f1 15 ce bd 72 9a c8 3c a6 91 73 3c e1 54 85 be
       -0.10062779 0.024487708 0.014866268 -0.2604132
000290 fd cc 01 be 2e 90 30 be 75 72 3c be ed aa d4 bc
       -0.12675853 -0.172425 -0.18403037 -0.02596041
0002a0 e7 8b 3f be ae fd 25 3e b3 df 98 3c e9 25 b1 bd
       -0.18705712 0.16210052 0.018661356 -0.08649809
0002b0 3b 16 5e 3e ce 89 af bd d8 80 20 bd c2 19 aa bd
       0.21688168 -0.08571206 -0.039185375 -0.08305694
0002c0 ae 01 93 be c6 3b e3 3d 8f 5c 1a 3e 1a f9 8e be
       -0.2871222 0.11095385 0.15074371 -0.27924424
0002d0 0d dc e2 bd d2 36 3d 3d 76 56 bb bd 59 8e 53 3d
       -0.110771276 0.04619486 -0.091473505 0.051649425
0002e0 f8 3d ad bd 95 ad c9 3d 39 99 99 bd 5d 06 15 bd
       -0.08459085 0.09847561 -0.07499928 -0.03638302
0002f0 c9 6e 44 3d 63 9c 24 be b7 46 bb bd d0 35 22 3d
       0.047957215 -0.16075282 -0.09144347 0.0396021
000300 3a 04 fb 3d 0a bc 54 3d 27 e6 45 3d 9e 4f f1 bd
       0.122566655 0.05193714 0.048315194 -0.11782764
000310 0a 74 f2 bd b4 23 96 be 85 af fb 3d 34 ed 80 be
       -0.11838539 -0.29324114 0.12289337 -0.25180972
000320 dd 0f 4c 3e bb fe b7 bd 88 60 55 3e 12 7d 8a 3d
       0.19927926 -0.08984133 0.20837605 0.067621365
000330 a5 c7 18 be c9 81 88 be db df 0b be 06 e3 10 bd
       -0.14919908 -0.26661518 -0.13659613 -0.035372756
000340 15 7e 19 be 99 d8 25 be 53 5b 58 3d 44 eb ef 3b
       -0.14989503 -0.16195907 0.05282147 0.007321747
000350 a7 ac f8 bd 2a 48 58 be 55 73 85 be aa 61 82 3d
       -0.12142306 -0.21121278 -0.26064554 0.06366284
000360 81 ef a5 3d b5 93 7a be be d5 63 be 81 e2 83 be
       0.08102322 -0.24470408 -0.22249505 -0.25758746
000370 d4 18 1e 3e 8a f9 4a be b9 b4 79 3d 0a a4 46 3e
       0.15439159 -0.19821754 0.060963366 0.19398513
000380 7d cb 8c bc a4 29 b5 bd 78 7b 6b be c4 87 45 be
       -0.017186875 -0.08845833 -0.22996318 -0.19290072
000390 28 fc 05 3e 05 8d 63 bd e5 98 0c be 69 86 3b 3e
       0.13084471 -0.05555441 -0.137302 0.18312992
0003a0 72 ac ad 3c dc 59 3c be 1f 71 b9 3c a9 a7 ec 3d
       0.021200392 -0.18393654 0.022636948 0.11555416
0003b0 3b ab 1c 3e be f0 19 be 33 d6 c0 bc ea 0d 58 be
       0.15299694 -0.15033242 -0.023539638 -0.21099058
0003c0 49 36 f6 3d a0 28 86 bd 48 c6 36 3e 0e 0c 5e bd
       0.12022073 -0.06550717 0.17849076 -0.054210715
0003d0 9a c1 cb bd 84 7b bb be 7e 99 13 3e 39 83 32 be
       -0.09949036 -0.36617672 0.14414021 -0.1743287
0003e0 fc 9a 50 be df 9f af 3d 30 ea 16 3e c5 70 67 3d
       -0.20371622 0.08575415 0.14737773 0.05650403
0003f0 a3 8c 1a bd 7a 68 96 bd b4 4b 09 3e 6e e9 e6 3d
       -0.037731778 -0.07344146 0.13407785 0.11274992

arith.constant5 f4 [128, 128]
000000 1b 5c aa 3c 0b 0d d9 bc f4 ee 35 3e d9 96 6f 3d
       0.020795872 -0.026495477 0.17766935 0.05849347
000010 d9 d7 1a bc 7e ab 1c bd ad d5 9f bd eb 7a 26 be
       -0.009450876 -0.038249485 -0.07804427 -0.16257827
000020 54 21 4a 3e d8 8d 15 3d 93 da 01 be d8 1a 1f bd
       0.19739276 0.036512226 -0.12681036 -0.03884396
000030 7d 43 96 3d 3b 0d fb bd 5d 91 0a 3b b9 39 00 3e
       0.07337091 -0.12258383 0.0021143772 0.1252202
000040 45 20 50 be f9 c8 1e be 73 65 16 3e be c3 58 3d
       -0.2032481 -0.15506352 0.14687137 0.05292105
000050 08 01 15 bd 70 99 80 3d 96 4f c7 bd a8 31 d4 3d
       -0.036377937 0.06279266 -0.09731977 0.10361034
000060 ea a3 02 3b 9a 8f c1 bd 89 ad a4 3d 23 db 19 be
       0.0019934126 -0.09451218 0.08040912 -0.15025
000070 2b 60 88 3d 35 36 95 bd 99 55 87 3a 7e 0d 0d 3d
       0.066589676 -0.0728573 0.0010325193 0.034436695
000080 98 5d 5a be ab 3f 0a 3e d7 ea 43 be 5d 3f bf bd
       -0.21324766 0.1350085 -0.19132553 -0.093382575
000090 ce 33 33 3e 69 12 cc bc fc 11 eb bd aa 38 16 be
       0.1750023 -0.024911122 -0.114780396 -0.14670053
0000a0 4c 7c a1 bd e5 e3 ec 3d ff bb 1c be fd 8e 13 bd
       -0.07885036 0.11566905 -0.1530609 -0.036025036
0000b0 79 d6 e9 3d 32 40 63 3c 34 31 6c 3e 2c 12 50 3c
       0.114178605 0.013870286 0.23065645 0.012699645
0000c0 16 95 65 3b ec 21 ab bc ad 74 0f 3d 46 c9 7f bd
       0.003503149 -0.020890199 0.03502338 -0.06244781
0000d0 f4 a1 1f 3e ae 5f ac bd 23 08 d8 3d 1e ba 24 3d
       0.15589124 -0.08416687 0.10548427 0.040216558
0000e0 4c cd 08 3e d3 d0 1b bd f9 b0 04 be 00 88 ac be
       0.13359565 -0.038040947 -0.12958135 -0.3369751
0000f0 ec e6 87 bd 6c 49 f4 bd 2f f5 00 be eb 52 ad bd
       -0.06635842 -0.119280666 -0.1259353 -0.08463081
000100 bc 64 9e bd 3a ae 03 3e a0 11 09 be 4e c5 fe 3b
       -0.07734057 0.12859431 -0.1338563 0.0077749854
000110 a9 99 89 bb 92 c6 aa 3d fd 95 2a 3d 7b da 4f bd
       -0.004199226 0.083386555 0.041646946 -0.05074547
000120 4e fd e8 3d 2f d4 93 3e ec f2 25 be d8 8b be bd
       0.11376439 0.2887282 -0.16205949 -0.09304017
000130 ed 39 de 3c 6e d8 2a be d3 bb 8a 3d f4 8b ab 3d
       0.02712723 -0.16684124 0.06774106 0.08376303
000140 28 8b c1 3c 69 fe 7e be 73 b9 20 3e ab 2e f7 3c
       0.023625925 -0.24901737 0.15695743 0.03017362
000150 0d 67 4a 3b 64 44 69 bb 22 b1 73 be da 2e e6 bd
       0.0030884177 -0.0035593743 -0.2379804 -0.11239405
000160 94 cd f4 3d c5 91 3c 3d 1f 94 04 be e7 cb d4 bd
       0.119532734 0.046037454 -0.12947129 -0.10390454
000170 b0 24 f0 3d 06 e2 b7 3d 45 9a 84 bd 26 7c 86 bc
       0.117257476 0.089786574 -0.06474737 -0.01641662
000180 b0 91 1b be 54 04 36 3e 1f 46 3a 3d 3b 27 92 3d
       -0.15192294 0.17775089 0.04547703 0.07136389
000190 25 00 02 3e 65 ec 86 be 1b eb ff bb 56 ca 85 bc
       0.12695368 -0.2635223 -0.007810009 -0.016331833
0001a0 b5 90 e8 bd f1 6d d0 3d ec 79 1b bd 3b 84 8b be
       -0.11355726 0.1017722 -0.03795807 -0.2724932
0001b0 10 a4 de 3d 4d 32 55 3e cf 20 72 3d 61 f5 86 bd
       0.10871136 0.2081997 0.05911332 -0.06589771
0001c0 08 16 75 3d e3 07 95 be 93 68 6f bc 19 64 80 3e
       0.059835464 -0.2910758 -0.014612335 0.25076368
0001d0 35 22 88 3d f8 d3 fa 3b e5 88 cd 3c d9 f1 f3 3c
       0.066471495 0.007654663 0.02508969 0.029778408
0001e0 1f 0a d0 3d c7 38 5a be 7a 22 1c be 15 3c bd bd
       0.101581804 -0.21310721 -0.15247527 -0.09239975
0001f0 c7 98 6a bd 7d ef 08 be 46 f1 05 3d c3 df 94 3d
       -0.057274606 -0.13372608 0.0327008 0.07269242
000200 6e 2c ab bd 2a 97 ba 3d 7f 17 7d be 4f d6 c0 bd
       -0.08358084 0.091108635 -0.24715994 -0.09415876
000210 9c d9 62 be db 8b eb bc 77 a1 83 bd 23 d9 60 3e
       -0.22153324 -0.028753212 -0.06427281 0.21957831
000220 e4 36 35 be d6 9a 06 3d b3 64 b8 3d f7 3d 49 be
       -0.1769672 0.032862507 0.09003582 -0.19652544
000230 c2 2b 8d 3c 10 12 28 be 96 ac a8 bd cb ca 6b 3d
       0.01723278 -0.1641314 -0.08236043 0.057566445
000240 8e b9 b2 3d c1 02 dc ba 8f 60 b7 3c 41 ba d4 3d
       0.08726798 -0.0016785489 0.02238491 0.103870876
000250 15 71 21 3e 49 f0 2c be c5 e0 61 be 6e 5c c6 bc
       0.15765794 -0.16888537 -0.22058399 -0.024213996
000260 70 57 9f be 10 f8 e6 bd e8 ac bd 3b 6d e0 9b bd
       -0.31121397 -0.11277783 0.0057884343 -0.07611165
000270 6c fa a7 3c 92 c5 e7 3d 70 88 62 bd 06 10 7a bd
       0.020505153 0.113169804 -0.0553059 -0.061050437
000280 df 3c 48 be bf f5 72 be 06 58 e0 be b2 70 53 bd
       -0.1955447 -0.23726557 -0.43817157 -0.051621147
000290 43 0c 67 3d 3a 31 2f be 86 cb 08 be 2f 9b d4 3d
       0.056408178 -0.17108622 -0.13358888 0.103811614
0002a0 f9 68 87 be ff 6d 36 3e 51 71 a8 3d 02 c1 e7 3c
       -0.26447275 0.17815398 0.082247384 0.028290275
0002b0 81 34 03 be 56 fd d9 3d 46 38 11 be 5a cc 99 bd
       -0.12812997 0.10644023 -0.14181623 -0.0750968
0002c0 14 1b 81 3c 57 6e 9f bd 71 d1 07 bd 8b 3c d5 3d
       0.015759982 -0.077847175 -0.033158723 0.10411938
0002d0 0b d5 b1 3e 9a b7 29 be d6 5c 7f bd 74 b2 cb 3d
       0.3473285 -0.16573945 -0.062344395 0.099461466
0002e0 a5 f5 04 3c 56 92 a5 bc a7 b6 03 be e3 11 95 3d
       0.008115207 -0.02021138 -0.12862645 0.07278802
0002f0 f8 b2 5a 3d 2c cd 6f be ed 67 67 3d 2e a6 90 bd
       0.053393334 -0.2341811 0.056495596 -0.07062946
000300 e6 67 9f bb 3b 10 27 bd 5d 6d 32 3c 43 66 26 be
       -0.0048646806 -0.040786963 0.010890332 -0.16249947
000310 89 6f dd 3c e7 a4 8c 3d 44 47 df 3d 56 6b 43 bd
       0.027030723 0.0686739 0.10902265 -0.047709785
000320 6a ea ac 3d 4d 28 57 3d fa bf 61 3d 6a 9e 4e bd
       0.084431484 0.05252867 0.055114724 -0.050444044
000330 2d e1 eb bd 8a 62 29 be 56 6d 79 bd 70 bb 7a bd
       -0.11517558 -0.16541496 -0.060895287 -0.06121391
000340 24 82 b0 3d 3e 38 e1 3c 3d ea 57 bc 80 3b f6 bd
       0.08618572 0.027492639 -0.013178405 -0.120230675
000350 a1 17 c7 3c b6 ba 38 3e a2 92 9e bd 53 2d de bc
       0.02430326 0.18039975 -0.07742812 -0.027121222
000360 7d 0a 26 be a1 8c 6c 3e a7 d9 bb 3d 84 9e 82 bd
       -0.16214938 0.2310052 0.09172373 -0.06377891
000370 67 e8 58 bd fc 05 38 3d 6d 4a 2a be ce b9 04 3d
       -0.05295601 0.044927582 -0.16629954 0.03240376
000380 1d 2c 56 3b 43 96 d7 3d 8c 45 69 be c8 5b 59 be
       0.0032680102 0.10526707 -0.22780436 -0.21226418
000390 56 6b 36 3e 94 48 21 bd ee 63 f5 3c ff 8d 0c 3e
       0.17814383 -0.039375857 0.029954877 0.13726042
0003a0 92 90 4c 3e 05 f4 7e 3d 3f 2e 93 3d f8 46 80 bd
       0.19977024 0.062244434 0.07186555 -0.06263536
0003b0 cd 32 18 3d b4 46 9b 3e 26 39 84 3d 95 f0 35 be
       0.037157822 0.3032738 0.06456213 -0.17767556
0003c0 68 81 76 3d c8 ba 1a be 6a 47 a3 bd bd 74 b2 3c
       0.060182005 -0.15110314 -0.079726055 0.02178418
0003d0 4b 40 98 bd 90 76 1a be 33 fa 23 be e2 51 76 bd
       -0.07434138 -0.1508429 -0.16013412 -0.060136683
0003e0 78 09 39 bc 73 c9 ee bc ec a9 fc 3d ba 46 33 3e
       -0.011293761 -0.029148793 0.123370975 0.17507449
0003f0 91 10 99 be 2a 34 55 be 7e de c0 bd 8f 37 43 be
       -0.29895452 -0.2082068 -0.09417437 -0.19064163

arith.constant6 f4 [128]
000000 c5 fd 68 be 74 6d 81 bd 2e a3 1b be c5 8c 8e be
       -0.22753055 -0.06319705 -0.15198967 -0.27841774
000010 6e 3c 82 bc ba 8a 12 bd 8f 17 59 bc 68 5b 45 be
       -0.015897956 -0.03577683 -0.013250246 -0.1927315
000020 d7 15 64 bd 26 cc 9b 3c ea 5c 30 be 61 57 55 bb
       -0.05568489 0.019018244 -0.17222944 -0.0032553303
000030 0b cf b1 bd c7 a0 2b bd 50 f6 fe bc 4f 40 f2 bd
       -0.086820684 -0.041901376 -0.03112331 -0.11828672
000040 14 14 4d bd bc 30 02 be bb 66 5a be 92 a1 8c bd
       -0.050067976 -0.12713903 -0.21328251 -0.068667546
000050 a3 e0 d7 bd 9c 99 99 bd 6b f6 71 be c7 05 01 be
       -0.10540893 -0.07500002 -0.23629157 -0.1259986
000060 36 cb 7b bd 58 78 e6 bd 75 fe 0e be 12 2f 20 be
       -0.061473094 -0.112534225 -0.13964255 -0.15642956
000070 5d 11 fc 3d d0 39 25 be 52 bb 3a be 86 f5 d3 bd
       0.12307999 -0.16135335 -0.1823552 -0.10349564
000080 52 fc 23 be dc e4 2f be 14 7b 9f 3d 00 7d 02 be
       -0.16014221 -0.17177147 0.07787147 -0.12742996
000090 13 78 77 be 59 2f 8a 3c 46 a7 ba bd ab 6b 4f be
       -0.24166898 0.01686828 -0.09113936 -0.20255916
0000a0 31 b0 c6 bc 87 a9 80 be 5e 6b 04 3c 90 71 62 be
       -0.024253936 -0.2512934 0.008082239 -0.22113633
0000b0 51 9a 1c be 10 4c 15 be 19 f4 48 3d 66 ae e1 bc
       -0.15293242 -0.14579797 0.049060915 -0.02754898
0000c0 27 a1 8a bd 62 a5 8f bd c7 0b 0c be 6d c1 7c bd
       -0.067690186 -0.07013966 -0.13676368 -0.061707903
0000d0 5e 45 ea 3b e3 b4 8d be e8 e9 0f be f4 c3 a3 bd
       0.0071493825 -0.27677068 -0.14054072 -0.079963595
0000e0 a0 7d 9e bd 3a b4 3c be f7 5e c8 bd 5b be 2d be
       -0.07738805 -0.18428126 -0.09783738 -0.16967146
0000f0 3d 2d 07 be 95 82 07 be 7a 80 f0 bd 0b f4 8b bd
       -0.13200851 -0.13233407 -0.11743255 -0.06833657
000100 b4 bb db bd 91 e3 99 be 71 99 94 be 42 ff 3d be
       -0.10729161 -0.30056432 -0.29023317 -0.18554404
000110 e9 d1 91 be 0e 13 6c 3d 21 93 e0 bd f4 fb 83 be
       -0.2848046 0.05763536 -0.109655626 -0.25778162
000120 4e b9 48 be 22 cb 60 be 0c 77 33 be cd cd 89 bd
       -0.19601938 -0.21952489 -0.17525882 -0.067287065
000130 6b ff 87 bd 33 ea 27 bc 91 82 f6 bd a3 4f 72 be
       -0.06640514 -0.010248709 -0.12036622 -0.23663191
000140 04 d2 87 be 08 a9 2b bd 08 09 42 be 1a b6 09 bd
       -0.26527417 -0.041909248 -0.18948758 -0.03362093
000150 f9 90 86 be 2a 00 82 be 61 71 04 3e 41 c3 1a be
       -0.2628248 -0.2539075 0.12933876 -0.15113546
000160 a5 3c 86 3d 2c 00 10 be b3 a1 10 be 36 99 3a bd
       0.06554536 -0.14062566 -0.14124183 -0.04555627
000170 2b d4 80 be 28 f4 3e be 85 6d 32 bd 5e 14 45 be
       -0.2516187 -0.18647826 -0.043561477 -0.1924605
000180 5c 56 23 be 55 1c 16 be c9 82 bc bd 53 53 ff bd
       -0.15950912 -0.14659245 -0.09204633 -0.12467065
000190 85 0c a3 bd 8b 3f d0 bd 60 c6 0b be 4b db 6f be
       -0.07961372 -0.1016837 -0.13649893 -0.23423497
0001a0 69 bf 64 be d9 22 9f bd d8 9f 54 be da 85 2f be
       -0.22338642 -0.077703185 -0.207641 -0.17140904
0001b0 d7 0e 24 be 1d d9 de 3c f9 f4 6b 3c ca 12 d7 3a
       -0.16021286 0.027203137 0.014401668 0.0016408798
0001c0 2b 90 57 be f9 81 06 bd 0a f5 5d be cc 9c ce bd
       -0.2105109 -0.032838795 -0.21675506 -0.100885004
0001d0 b4 41 1b be 44 56 ec 3c ff 8c 2c be 47 ea 41 be
       -0.15161783 0.028849728 -0.1685066 -0.18937026
0001e0 8d fd 63 bd 9e 82 99 be 95 25 49 be f1 08 59 bd
       -0.055661727 -0.29982466 -0.19643243 -0.052987043
0001f0 11 60 a1 be f6 c4 03 bd d8 8f 01 be 74 b1 20 bd
       -0.31518605 -0.03217026 -0.12652528 -0.039231732

arith.constant7 f4 [10]
000000 28 4a a9 3c 11 4f d5 bd 21 74 30 3d c7 07 ad 3e
       0.020665243 -0.10415471 0.0430795 0.33794996
000010 09 79 3a bd 3c ed 5b be 1d 46 f0 bd cf 95 d9 3d
       -0.045525584 -0.21477216 -0.11732123 0.10624277
000020 74 85 1e be c2 8e 24 3d
       -0.15480596 0.040175207

sequential_4_1/batch_normalization_10_1/batchnorm/mul f4 [64]
000000 0d 0f 50 3e c5 01 62 3e 7f 9e 90 3f d0 75 fc 3e
       0.20318241 0.22070988 1.1298369 0.49308634
000010 73 ca 8b 3e d5 62 eb 3e 6a 5f 88 3e f7 c9 a6 3e
       0.27302894 0.4597384 0.26635295 0.32575962
000020 48 0a db 3e 87 20 8d 3e b4 16 24 3f ce a0 a0 3e
       0.4278128 0.2756388 0.6409714 0.31372684
000030 88 2d 13 3f a9 93 40 3f 23 c2 6d 3f f5 cc c9 3e
       0.5749135 0.7522531 0.92874354 0.39414182
000040 88 91 9c 3e 54 11 4a 3f 87 e6 90 3e 05 51 a5 3e
       0.30579782 0.7893269 0.28300878 0.32288375
000050 01 96 04 3f d2 60 f5 3e 84 1d 13 3f cf ca cf 3e
       0.5179139 0.4792543 0.5746691 0.40584418
000060 d4 66 63 3e 3a 2b d7 3e 91 26 09 3f 07 1c 46 3e
       0.22207195 0.42025167 0.5357447 0.19346629
000070 4f ab 95 3e 07 1b e6 3e 67 46 ff 3e 83 e2 17 3f
       0.2923226 0.44942495 0.498584 0.59330004
000080 18 01 cc 3e 08 31 4b 3e 83 43 93 3e 72 48 fc 3e
       0.39844584 0.19842923 0.28762445 0.4927402
000090 ee bd ef 3e 6f 6a bf 3e f2 ca 8e 3e 92 fb 91 3e
       0.46824592 0.3738589 0.2788921 0.28512245
0000a0 91 8e 97 3e 46 3b 01 3f ce 83 12 3f 41 41 dc 3e
       0.29600957 0.5048107 0.5723237 0.43018535
0000b0 f3 3b 24 3f de 7c d3 3e 4e 80 0c 3f fe b7 06 3f
       0.64153975 0.41306204 0.5488328 0.526245
0000c0 ee 0b ca 3e a4 73 53 3f 46 61 14 3f 41 20 f4 3e
       0.39462227 0.8259833 0.5796093 0.47680858
0000d0 b4 62 cb 3e a0 82 89 3e 3b f2 7c 3e 28 77 ee 3e
       0.39723742 0.2685747 0.24701779 0.46575284
0000e0 5c 00 cd 3e 8d 70 b6 3e 96 0a 20 3f 36 0d 82 3e
       0.40039337 0.35632744 0.6251615 0.25400704
0000f0 73 72 e9 3e ad 09 b2 3e 42 79 f8 3e 2a b5 99 3e
       0.4559513 0.34773007 0.48530012 0.3002103

sequential_4_1/batch_normalization_10_1/batchnorm/sub f4 [64]
000000 97 3e 66 bf 96 fd 85 bf 26 2a cc bd f7 04 f6 be
       -0.89939255 -1.0468013 -0.09968977 -0.48050663
000010 3b 1b 32 bf 02 21 07 bf 45 09 a3 be 68 55 03 bf
       -0.695728 -0.5278474 -0.3184301 -0.51302195
000020 4a 2e eb be 14 27 00 bf 2a de 36 be e0 7e dc be
       -0.45933753 -0.5005963 -0.17858186 -0.43065548
000030 62 02 d6 be 78 94 93 be d4 74 e9 be a0 d7 fd bd
       -0.41798693 -0.2882421 -0.45596945 -0.12394643
000040 60 d6 fc be 76 ac 9f be 38 b9 39 bf e1 6c 1d bf
       -0.49382305 -0.31186265 -0.72548246 -0.6149426
000050 e0 07 dd bd 2b 06 18 be 75 a0 c9 be ce 21 13 bf
       -0.10792518 -0.14846103 -0.39380231 -0.57473457
000060 a4 bf 02 bf a5 1b 71 be 73 cb df be 3f 44 f7 be
       -0.5107367 -0.23545702 -0.43709907 -0.48294255
000070 57 91 05 bf 3d 1d c0 be 3b 31 ce be e4 41 dd be
       -0.52174896 -0.37522307 -0.40271935 -0.43214333
000080 aa b5 03 bf 2c 70 36 bf dd d7 c3 be 74 2a d8 be
       -0.5144907 -0.7126491 -0.38250628 -0.4221989
000090 4d e8 92 be 26 86 9a be 60 d4 55 bf 5b c1 2f bf
       -0.28692856 -0.30180472 -0.83527184 -0.6865441
0000a0 3a a8 82 bf 98 11 8e be 3d 18 8e be 8a c4 ad be
       -1.0207589 -0.27747798 -0.27752867 -0.3393901
0000b0 76 d3 9d be 5f 3f 07 bf f4 b5 cb be bd 95 0b bf
       -0.30825394 -0.5283107 -0.39787257 -0.5452536
0000c0 d2 f5 13 bf d1 16 89 be cc 61 4b be b4 21 9d be
       -0.5779697 -0.2677522 -0.19861525 -0.30689776
0000d0 9d d5 d4 be d8 eb 2b bf 3c 8a 20 bf f6 d0 0b bf
       -0.41569224 -0.67156744 -0.6271093 -0.54615724
0000e0 74 a8 de be aa 05 2c bf 24 5d f6 be be 54 3d bf
       -0.43487895 -0.6719614 -0.48117936 -0.7395743
0000f0 b4 66 a8 be a3 02 f6 be d0 97 99 be 96 79 94 be
       -0.32890856 -0.48048887 -0.29998636 -0.28999013

sequential_4_1/batch_normalization_11_1/batchnorm/mul f4 [32]
000000 df 17 5b 3e 90 3c 3f 3e 69 bd 5b 3e 10 61 46 3e
       0.21395825 0.18675447 0.21458973 0.19372964
000010 b9 8b 25 3e 8a 71 1f 3e 8a 11 2f 3e 52 c8 2a 3e
       0.16166581 0.15570655 0.17096534 0.16677979
000020 be ae 12 3e 5b b6 92 3e 12 ef 26 3e db 74 50 3e
       0.14324471 0.2865475 0.16302136 0.20357077
000030 f5 8c 2c 3e ed 1c 53 3e 62 bd 29 3e 8a 30 1f 3e
       0.16850646 0.20616503 0.1657615 0.1554586
000040 20 b1 37 3e a5 c1 81 3e d2 87 10 3e 12 a2 47 3e
       0.17938662 0.25343052 0.14114311 0.19495419
000050 b1 e3 77 3e 8b 77 49 3e 9a 94 44 3e 7c 33 6f 3e
       0.24207951 0.19674508 0.19197312 0.23359483
000060 84 8c 84 3e cc 61 2a 3e dd aa 6a 3e 2e 4f 24 3e
       0.25888455 0.16638869 0.22916742 0.1604583
000070 d9 a6 29 3e 45 93 1c 3e 2b 69 66 3e 18 04 2b 3e
       0.16567554 0.15290554 0.22501056 0.1670078

sequential_4_1/batch_normalization_11_1/batchnorm/sub f4 [32]
000000 b0 d6 e4 be c6 50 d8 be 78 5d 2a bf 30 11 c5 be
       -0.44695044 -0.42249125 -0.6654887 -0.38489676
000010 74 73 28 bf bc df 04 bf 9f 1a 40 bf 89 b0 24 bf
       -0.6580117 -0.5190389 -0.7504062 -0.6433187
000020 96 69 65 bf 53 fa a1 be 2e 10 fe be 48 89 e8 be
       -0.89614236 -0.31636295 -0.4962172 -0.45417237
000030 59 ee 38 bf a8 0a bb be 82 3c 4d bf f9 4d 91 be
       -0.7223869 -0.36531568 -0.8017045 -0.283798
000040 9b 4b 0e bf ee 2e 1c bf 04 e9 c4 be 1d c7 af be
       -0.55584115 -0.6100911 -0.38459027 -0.343316
000050 c6 0c 9d be fa 64 e6 be 8e 27 0b bf f2 15 f7 be
       -0.30673808 -0.44998914 -0.5435723 -0.4825893
000060 1f df 0b bf 4b 5b 2f bf 21 be 02 bf a5 7c 32 bf
       -0.5463733 -0.68498677 -0.51071364 -0.6972144
000070 dd 8b 14 bf 87 a1 4d bf 19 0e 0d bf 02 cb 4a bf
       -0.58025914 -0.80324596 -0.55099636 -0.79216015

sequential_4_1/batch_normalization_9_1/batchnorm/mul f4 [128]
000000 29 f6 96 41 af 7a c4 3f 9a 0f e9 40 d6 0a 4b 41
       18.870195 1.534994 7.2831545 12.6901455
000010 9e 0d c6 41 bb fc ed 41 8a 85 f4 41 3b b8 f6 3e
       24.756649 29.748404 30.565205 0.48187432
000020 91 61 a2 41 ec 7a ab 41 f1 19 71 41 e9 99 65 41
       20.29764 21.43502 15.068833 14.350076
000030 ff 66 f8 41 f6 b9 af 41 9c fa b5 41 ef c3 a7 41
       31.050291 21.965801 22.747368 20.97067
000040 5f 92 fa 41 e6 b2 0e 41 a8 39 c1 3f d3 9d 0f 41
       31.32147 8.918676 1.509572 8.976031
000050 b6 75 ab 41 09 d9 f7 40 6e 1d 1c 40 2f 3e 73 41
       21.432476 7.7452435 2.4392962 15.202682
000060 09 c7 fb 41 77 7c 13 40 30 0d fa 41 06 c6 8c 41
       31.472185 2.3044717 31.25644 17.596691
000070 93 c7 e6 41 f1 29 f5 40 90 d6 90 3f c6 41 ed 41
       28.847448 7.66137 1.1315479 29.657116
000080 c2 db fa 41 8d ab 17 41 9c e0 45 41 6c 82 e3 41
       31.357304 9.4793825 12.367336 28.438683
000090 11 19 b8 41 c9 71 ff 41 10 68 df 41 e2 37 f0 41
       23.01224 31.93056 27.925812 30.027287
0000a0 8c e1 05 42 67 02 88 41 78 b0 fb 41 0d 2a f7 41
       33.47026 17.001173 31.461166 30.895533
0000b0 2d 49 61 41 0b ed cf 41 da 53 90 3f 9e 40 32 40
       14.080365 25.990744 1.127559 2.785194
0000c0 34 5a 64 41 28 37 05 3e 36 d6 d5 3f 10 78 45 41
       14.272022 0.13009322 1.6705997 12.341812
0000d0 f2 b0 fc 41 d2 99 09 41 93 c8 8f 41 85 3c c4 41
       31.5864 8.600054 17.972937 24.52955
0000e0 c6 9a d1 41 16 47 3e 41 bf 37 cc 41 88 d7 08 41
       26.200573 11.892355 25.52722 8.55262
0000f0 cd fb 76 41 a4 68 71 41 59 f6 a3 41 be f8 07 41
       15.436475 15.088047 20.495287 8.498228
000100 a1 65 f1 41 9c cb bc 41 b8 13 f1 41 dc c8 f2 41
       30.174623 23.599419 30.134628 30.348076
000110 ee ec 65 41 bc a3 e4 41 42 60 ac 41 79 a6 bb 41
       14.370344 28.579948 21.547 23.456285
000120 a0 ce 8f 3f 3b 19 86 3f 95 c1 31 41 dd 8d 9b 3f
       1.1234932 1.047645 11.109761 1.2152668
000130 61 78 04 42 b8 62 de 41 f7 8b b2 41 e4 98 31 3f
       33.117558 27.798203 22.318342 0.6937392
000140 42 9c c4 41 a7 c5 e6 41 d8 73 16 41 5d 82 59 41
       24.576298 28.84651 9.403282 13.594327
000150 ed d1 f2 41 50 6e a8 41 ce 48 f8 41 05 fa f4 41
       30.352503 21.053864 31.03555 30.62208
000160 e1 ae e3 41 04 21 f6 41 fe 0a ee 40 be 6b dc 41
       28.46039 30.76612 7.438842 27.552608
000170 dd 14 c8 41 f8 84 34 41 73 b4 df 41 4d 98 f1 41
       25.010187 11.282463 27.96311 30.199366
000180 b7 0b f3 41 69 4c 7b 40 b7 1a ff 41 d7 ab e1 41
       30.38072 3.9265387 31.888044 28.208906
000190 6c 7e bc 41 c1 46 ce 41 c3 b6 45 3f 5a c9 bf 41
       23.56173 25.784548 0.77232 23.973316
0001a0 b0 cc ba 3f f3 29 d8 41 52 6a 21 41 c0 bc e4 40
       1.4593716 27.020483 10.088457 7.148041
0001b0 96 15 9f 41 0a 06 0f 41 68 61 fc 41 09 1f e5 3f
       19.88554 8.938974 31.547562 1.7900096
0001c0 4e b3 15 42 88 bb 05 42 7f b7 00 41 5d 13 24 41
       37.425102 33.433136 8.044799 10.254727
0001d0 00 5c d3 41 40 35 f3 41 76 fb f8 41 b0 55 8d 41
       26.419922 30.401001 31.122784 17.66684
0001e0 36 12 f5 41 a1 ee e7 41 51 d7 f9 41 f2 82 fb 41
       30.633892 28.991518 31.230135 31.438938
0001f0 6f 8f 07 42 41 2c e5 41 f4 2d f9 41 e9 19 f6 41
       33.89007 28.646608 31.147438 30.762651

sequential_4_1/batch_normalization_9_1/batchnorm/sub f4 [128]
000000 48 c3 18 bf 9b f8 08 bf 1a a5 a6 bf 20 ad 1a bf
       -0.59672976 -0.5350434 -1.3019135 -0.6042042
000010 5c 93 25 3c 9e f4 4a 3c 91 77 1a 3c 74 66 bb bd
       0.010105934 0.012387423 0.009427921 -0.09150401
000020 ff 9f 0a 3d a4 ae bd be 04 08 71 bf 65 b9 be bf
       0.03384399 -0.37047303 -0.94152856 -1.4900328
000030 fb 63 01 bc 90 e8 43 bf d0 07 db bd 4a 57 0d 3e
       -0.007897372 -0.7652674 -0.106948495 0.1380283
000040 3b e3 77 3c fe ee 17 c0 55 85 44 bf aa 4b 50 bf
       0.01512986 -2.373962 -0.7676595 -0.81365454
000050 1c fc 36 ba 51 67 e7 bf 9d bf 4b bf 0c 65 4b 3c
       -0.0006980316 -1.8078405 -0.79589254 0.012414228
000060 5b 76 4c bc 5c b8 76 bf 97 ff 36 bc f0 48 1b bf
       -0.01247939 -0.9637506 -0.011169336 -0.6065817
000070 a1 99 91 bc d6 04 90 be 7d 6a 14 bf 26 eb 56 3b
       -0.017773451 -0.2812869 -0.5797499 0.0032793968
000080 ba de dc ba 7b 5d 95 3b 08 89 9e bf 6b 1f 03 bb
       -0.0016851046 0.004558263 -1.2385569 -0.002000774
000090 92 38 8a bf 80 bb 0d 3b 5e 7e af 3a 6c 67 7b b8
       -1.0798514 0.0021626651 0.0013389101 -5.9939382e-05
0000a0 7a 61 1b 3e 1c 61 92 bc 32 28 17 bb 1e cd 99 bb
       0.15173903 -0.017868571 -0.002306473 -0.0046936413
0000b0 fd d0 3a bf 11 0d 0d bc c7 de 60 bf 96 0f 56 bf
       -0.7297514 -0.008609072 -0.8783993 -0.8361753
0000c0 6f fc d9 3d be b0 43 bd 39 3e 31 bf 31 0e 84 bf
       0.10643851 -0.047775976 -0.6923557 -1.0316831
0000d0 c6 37 45 3c d8 d3 2e bf e5 d4 5b be 90 b9 45 3c
       0.012037223 -0.68292 -0.21467932 0.012068167
0000e0 58 d9 2a bf 2e 7f 44 bf ee b1 87 3d e7 80 88 bf
       -0.6673789 -0.7675656 0.06625734 -1.0664338
0000f0 89 59 ad bf d9 20 e1 be cc 7c 58 3d 97 04 9c bf
       -1.3542949 -0.43970373 0.05285339 -1.2188901
000100 b2 91 27 3c 17 0e c5 bf 71 77 8f bd 79 70 8c bb
       0.010227608 -1.5394925 -0.070052035 -0.0042858687
000110 a2 d5 c5 bf 46 3a 81 ba 99 89 8e bf c6 78 99 3d
       -1.545582 -0.0009859286 -1.1135741 0.07493739
000120 5b 4c 70 bf e7 9d 57 bf ad f2 84 bf 96 5f ad be
       -0.9386651 -0.84225315 -1.0386559 -0.3386199
000130 63 3d 51 3c 2d 8b a3 3c 1c eb 82 bf 31 33 11 bf
       0.012770983 0.019963825 -1.0228 -0.56718737
000140 bd da 2e 3c ba c6 27 3d 71 7a 18 bf 9f 4f bd bf
       0.010672268 0.040961005 -0.5956183 -1.4789923
000150 60 c6 a7 3a 6e 53 ac bd 72 d1 68 be 87 c5 05 bd
       0.0012800209 -0.084143505 -0.22736147 -0.03265908
000160 6c 7a 7e bf 2a dc 39 3c 57 39 08 be 4d 81 3f 3d
       -0.9940555 0.011343995 -0.13303123 0.04675417
000170 65 f0 af 3d e7 71 7d bf 4c f9 df 3d ba 3a 17 be
       0.085907735 -0.99001926 0.109362215 -0.14768496
000180 69 74 29 bc e0 b2 9d bf 45 f9 a3 3b 68 42 ca bb
       -0.010342696 -1.2320213 0.0050040805 -0.006172467
000190 a1 e0 02 be 0e 49 8c bc ca 2d 3d bf 3e 90 07 3d
       -0.12781002 -0.017124679 -0.73897994 0.033096544
0001a0 8d 38 5c bf 74 07 d2 bc 16 07 32 be bd d8 11 bf
       -0.8602379 -0.02563832 -0.17385516 -0.5697134
0001b0 73 76 96 bf a7 f7 83 bf 37 1f b0 3b 20 e7 76 bf
       -1.1754898 -1.0309952 0.005374815 -0.9644642
0001c0 0d 00 0e 3e 69 f9 c1 3d 60 55 45 bf 93 3c 3d bf
       0.13867207 0.09471399 -0.77083397 -0.73920554
0001d0 7f 72 1e 3c 5a 05 73 bb dd 21 86 3b 86 48 cc bf
       0.009670853 -0.0037082047 0.0040933923 -1.5959632
0001e0 f4 c3 86 39 80 ea 8d 3a 5d 34 5f 3b fb f8 30 3b
       0.00025704468 0.0010827333 0.003405831 0.0027003873
0001f0 2b ff 78 3d ae 5a df 3b ad fe 48 3e c7 ec ea 3b
       0.060790222 0.00681623 0.19628401 0.0071693393
